examples/test_meta_learning/catmichalewicz_2d/tmp_models/model.pkl (torch, 90523 bytes, 18 tensors)

layer1.weight f4 [48, 42]
0	0xbdabcb8b	-0.08388432
1	0xbde8fe71	-0.11376656
2	0xbdda8a85	-0.10670952
3	0xbdf9f832	-0.122055426
4	0xbdb427f9	-0.08796687
5	0x3deeae86	0.116543815
6	0xbdc1adff	-0.09457015
7	0xbde766ed	-0.112989284
8	0xbdd1d221	-0.10245157
9	0x3cff891c	0.031193309
10	0x3e2568a6	0.16153201
11	0xbdd7a33f	-0.105291836
12	0xbe07bcfc	-0.13255686
13	0x3d2eb136	0.04264947
14	0x3d025076	0.031815015
15	0x3cec6788	0.028857961
16	0xbe139fd2	-0.14416435
17	0x3e4fb681	0.20284463
18	0xbe00057a	-0.12502089
19	0x3d545f76	0.05184885
20	0x3cd87b7a	0.026426066
21	0x3d041501	0.032246593
22	0xbd906cd1	-0.07052005
23	0xbdc7fb47	-0.09764724
24	0x3dfecf7b	0.124419175
25	0xbb01e3b8	-0.001981957
26	0x3cc332c8	0.023827925
27	0xbd4e5022	-0.05036939
28	0xbe0a6d3d	-0.13518234
29	0x3e88f52b	0.26749548
30	0xbdb2a73a	-0.08723302
31	0x3e0d9dc0	0.13829708
32	0x3ba4f87d	0.005034505
33	0xbd8033e4	-0.06259897
34	0xbd499516	-0.049214445
35	0xbdc4e17c	-0.0961332
36	0xbd836699	-0.06416053
37	0xbcbc367d	-0.0229752
38	0xbdbedf2c	-0.093199104
39	0x3daa3bc6	0.08312182
40	0x3cf38a74	0.029729106
41	0xbdf46bbf	-0.119346134
42	0x3d0b6c4c	0.034038827
43	0x3c1bfa24	0.009520087
44	0x3daceee4	0.08444002
45	0xbca6b0b4	-0.02034793
46	0x3d06a00e	0.032867484
47	0xbd8999ad	-0.067187645
48	0x3c71ff59	0.014770352
49	0x3bb45509	0.005503301
50	0x3cb23a86	0.021756422
51	0x3c8c22c4	0.017106421
52	0x3e07aa1b	0.13248484
53	0xbc28241e	-0.010262517
54	0x3e0fa54c	0.140279
55	0x3e8e7208	0.27821374
56	0x3e3f9077	0.18707453
57	0xbe713996	-0.23557124
58	0xbebccbf7	-0.36874363
59	0xbdc9d15a	-0.09854384
60	0xbd63546f	-0.055500444
61	0xbbdf7ab8	-0.006820049
62	0x3c9b307e	0.018944021
63	0xbb933bb4	-0.004493201
64	0xbd643006	-0.05570986
65	0x3d8a0d32	0.06740798
66	0x3d401a40	0.046900034
67	0x3d8a29db	0.067462645
68	0x3d2aa5b0	0.04166192
69	0xbd1045a0	-0.03522265
70	0x3d568aac	0.05237834
71	0xbdfd2529	-0.12360603
72	0xbd6a64af	-0.057224926
73	0x3e589496	0.21150431
74	0x3e5195ec	0.20467347
75	0xbe467fd7	-0.19384705
76	0xbeb42eb7	-0.3519189
77	0x3daf6dfa	0.08565898
78	0xbce58149	-0.02801575
79	0xbdace7bd	-0.08442638
80	0xbd0b0c8b	-0.03394751
81	0x3c807fca	0.015685935
82	0xbe18b532	-0.1491287
83	0x3c5eeb00	0.013605833
84	0xbda10970	-0.07863128
85	0xbdc2666e	-0.09492193
86	0xbe1a5dd8	-0.15074861
87	0x3e89fcb8	0.26950622
88	0x3bb5f8f4	0.005553359
89	0xbdbb0933	-0.09132614
90	0xbda61229	-0.081089325
91	0xbdcd9585	-0.10038284
92	0x3d0e950b	0.034810107
93	0xbdcd4573	-0.10023012
94	0x3e9adfd6	0.30248898
95	0x3ded15da	0.115764335
96	0xbe13d311	-0.14435984
97	0x3d838ba5	0.064231195
98	0xbda0bb4c	-0.07848224
99	0xbdc85f06	-0.09783749
100	0xbd838119	-0.06421108
101	0x3d6ed388	0.0583072
102	0xbdbad76d	-0.091231205
103	0x3df22c67	0.11824875
104	0x3dc0aad7	0.09407585
105	0xbe5ab5a0	-0.21358347
106	0xbe5585d3	-0.20851831
107	0xbe7249a5	-0.23660906
108	0x3e37c9c1	0.17948057
109	0x3d05b353	0.03264172
110	0x3d42bf2d	0.0475456
111	0x3c0927f7	0.008371345
112	0x3a80063c	0.0009767483
113	0xbe1e3947	-0.15451537
114	0xbe02f07f	-0.12787054
115	0xbe728954	-0.23685199
116	0xbe6dd0fd	-0.23224254
117	0xbe29e1db	-0.16590063
118	0xbd6abee5	-0.057310957
119	0xbe3cb41e	-0.18428084
120	0xbd1063f4	-0.035251573
121	0xbe5e9f3b	-0.21740429
122	0x3e2c8186	0.16846284
123	0xbe31fd07	-0.17381679
124	0x3dabcb31	0.08388365
125	0xbe0550f5	-0.13019164
126	0x3e4b1525	0.19832285
127	0x3db32280	0.08746815
128	0xbe48513f	-0.19562243
129	0x3e19ca74	0.15018636
130	0xbe55fe45	-0.20897777
131	0x3e03e74d	0.12881203
132	0x3d0a4f13	0.033766817
133	0xbe39ae6d	-0.18132944
134	0x3da646ac	0.08118948
135	0x3e428e83	0.18999676
136	0xbe735b83	-0.23765378
137	0x3e074aa3	0.13212065
138	0x3d261b5c	0.040553436
139	0x3cf50937	0.02991162
140	0x3e05b1a5	0.13056047
141	0xbc93bb8b	-0.018033763
142	0xbd672063	-0.05642737
143	0xbe73d7a7	-0.23812734
144	0xbe7ae111	-0.24499919
145	0xbdba739e	-0.091040835
146	0x3d838486	0.06421761
147	0xbd081428	-0.033222347
148	0x3ceff8e3	0.029293483
149	0xbd85d539	-0.065348096
150	0xbd3f4d63	-0.04670466
151	0xbd83d13b	-0.06436392
152	0xbd3cf4b2	-0.046131797
153	0x3d3313a5	0.043719906
154	0xbdc2715f	-0.0949428
155	0xbdfd9e9d	-0.12383769
156	0xbda4cab0	-0.08046472
157	0xbe60bdcb	-0.219474
158	0x3eb75843	0.35809526
159	0x3e8dbfbf	0.27685353
160	0xbe16b064	-0.14715725
161	0x3c31c537	0.010850242
162	0x3db49b4b	0.08818682
163	0xbe3afb78	-0.1825999
164	0x3e26bc3d	0.16282745
165	0x3ce86bb1	0.028371664
166	0x3d6dfc1e	0.058101766
167	0xba9660dd	-0.0011472959
168	0xbecc3c25	-0.39889637
169	0xbd93a1ba	-0.07208581
170	0xbcc0f370	-0.02355358
171	0xbb248d61	-0.0025108682
172	0xbd954a71	-0.07289589
173	0x3dad7320	0.08469224
174	0x3db42ec3	0.087979816
175	0x3db8f7e3	0.09031656
176	0x3e34a387	0.17640506
177	0x3c9104bf	0.017702458
178	0xbe8b4abf	-0.27205464
179	0xbef8d68f	-0.48601195
180	0x3e3a221c	0.18177074
181	0x3ce68a99	0.02814226
182	0x3e58ae72	0.21160296
183	0x3e87863e	0.26469606
184	0xbee3f39d	-0.445218
185	0xbd4189b4	-0.047250465
186	0x3c399c57	0.011328778
187	0x3e2fd6e8	0.17171824
188	0x3dd8df7a	0.105895
189	0xbc2ca76d	-0.010537964
190	0xbd06b393	-0.0328861
191	0xbe461202	-0.19342807
192	0x3d5ab6cf	0.053396996
193	0xbd2abe48	-0.041685373
194	0xbd922bf3	-0.07137289
195	0xbd8a1bfb	-0.06743618
196	0x3d99b973	0.07506075
197	0xbcf1847c	-0.029482119
198	0xbe213a99	-0.1574501
199	0xbbdce5bf	-0.006741255
200	0x3f0fbc36	0.5614656
201	0xbd324aee	-0.04352849
202	0xbe051200	-0.12995148
203	0xbd1629b7	-0.036660876
204	0x3dee37b2	0.11631717
205	0xbc808835	-0.015689949
206	0xbdb4997b	-0.088183366
207	0xbe449473	-0.19197254
208	0x3d74c0eb	0.059754293
209	0xbbcb7699	-0.0062092063
210	0xbe1cc2e9	-0.15308727
211	0xbcfd7bf5	-0.030942896
212	0xbdaaaa6a	-0.08333285
213	0xbde0eac2	-0.109822765
214	0xbd983063	-0.07431104
215	0xbdf3536c	-0.11881146
216	0xbe3a51e6	-0.18195304
217	0xbdf278a0	-0.11839414
218	0xbdd9da65	-0.106373586
219	0xbcf5e72f	-0.030017463
220	0xbd2f1ada	-0.042750217
221	0xbe528947	-0.2056018
222	0x3e13361b	0.14376108
223	0x3eab311c	0.33435905
224	0x3e7a6f67	0.24456559
225	0x3e2d3a33	0.16916732
226	0x3e8a6646	0.27031153
227	0xbd89fe74	-0.06737986
228	0xbe182d8c	-0.14861125
229	0xbe021472	-0.12703112
230	0xbe5db200	-0.21649933
231	0xbda2e424	-0.079536706
232	0xbd7587d1	-0.059943978
233	0xbd6fa6d0	-0.058508694
234	0xbdd0c76f	-0.10194289
235	0x3c583571	0.013196335
236	0xbd348a5d	-0.044077266
237	0xbd97df48	-0.074156344
238	0xbdcb5ad5	-0.09929434
239	0x3d3440cb	0.044007104
240	0x3dbdfd1c	0.092767924
241	0x3e32756d	0.17427607
242	0x3e5a5076	0.21319756
243	0x3d5b717d	0.053575028
244	0xbd44b954	-0.048028305
245	0xbdb72760	-0.08943057
246	0xbd2e38d9	-0.042534683
247	0xbd9153af	-0.070960395
248	0x3d411f10	0.047148764
249	0x3e1170d6	0.142032
250	0xbc898f1f	-0.016791878
251	0xbd2eefc9	-0.042709146
252	0xbd7714e8	-0.060322672
253	0x3c240c43	0.010012689
254	0xbea00439	-0.31253222
255	0xbe7b1b5b	-0.24522154

layer1.bias f4 [48]
0	0xbe5cb221	-0.21552326
1	0x3df450a0	0.119294405
2	0xbe00dbe2	-0.12583879
3	0xbc3df665	-0.01159439
4	0xbdb949c2	-0.09047271
5	0x3e157695	0.14596017
6	0x3de4397d	0.111437775
7	0xbd41cadb	-0.0473126
8	0x3daaced9	0.08340234
9	0x3dbfd8c1	0.093675144
10	0x3e1a4b8e	0.15067884
11	0xbd949d06	-0.07256512
12	0x3e03dfcb	0.12878339
13	0xbd00be70	-0.031431615
14	0xbd9324e5	-0.071847714
15	0x3d62b7cd	0.055351067
16	0xbdcdc9a6	-0.10048227
17	0xbdf061dd	-0.11737416
18	0x3e196df3	0.14983349
19	0x3cb2bcdf	0.021818576
20	0x3e0988dd	0.13431115
21	0x3da7efbd	0.08200023
22	0xbd24c579	-0.040227387
23	0x3cd0a4f9	0.02546929
24	0x3de1001c	0.10986349
25	0xbe1be84f	-0.15225337
26	0xbe85741b	-0.26065144
27	0x3a618a68	0.0008603693
28	0xbda5f559	-0.08103437
29	0x3e1dfc43	0.15428261
30	0x3de12e56	0.10995166
31	0xbdb73cb5	-0.08947126
32	0x3d887609	0.066631384
33	0xbd9f982c	-0.07792696
34	0xbdc7bba4	-0.097525865
35	0x3d689736	0.05678483
36	0x3d060269	0.032717142
37	0x3da7bdc7	0.08190494
38	0xbe426b28	-0.1898619
39	0xbdd4e5d7	-0.10395401
40	0x3d095439	0.033527587
41	0xbe021b51	-0.12705733
42	0xbbc7405f	-0.0060806717
43	0x3bcb92b1	0.0062125553
44	0xbc79dd2a	-0.0152504835
45	0x3c821ca2	0.015882794
46	0xbdc29801	-0.09501649
47	0xbdcb9fdf	-0.09942602

layer2.weight f4 [48, 48]
0	0x3cec23bb	0.028825631
1	0x3d61f4bd	0.05516504
2	0x3d9dcdda	0.07705279
3	0x3ce45ca2	0.027876202
4	0xbd489d1b	-0.048977952
5	0xbdf9aa1f	-0.12190651
6	0xbd88e8d0	-0.066850305
7	0xbd857d97	-0.06518095
8	0xbd97984b	-0.074020945
9	0x3c4b0271	0.012390719
10	0x3d3b0fe3	0.045669448
11	0xbc95ffbd	-0.018310422
12	0xbd4aeab3	-0.049540233
13	0x3d2cf2e8	0.04222384
14	0x3d0dde81	0.034636024
15	0x3c9c027a	0.01904415
16	0x3cddaa2d	0.027058685
17	0xba1c35bc	-0.0005958935
18	0x3db85366	0.09000282
19	0xbcdb0f07	-0.026740564
20	0x3c6986bc	0.014253315
21	0x3da85942	0.082201496
22	0xbe96f41f	-0.29483125
23	0xbe0c91ea	-0.13727537
24	0x3c2a5b02	0.0103976745
25	0xbe1d9799	-0.15389861
26	0xbcc26ed7	-0.023734493
27	0xbd8d758c	-0.06907186
28	0x3d01871e	0.031623
29	0xbd20af32	-0.03922958
30	0x3ccc864e	0.024966385
31	0xbc430e9c	-0.011905339
32	0xbe0c807b	-0.13720886
33	0x3b8c6e59	0.0042856154
34	0xbe6d1f97	-0.23156582
35	0x3ca95698	0.020671174
36	0x3d9bd30c	0.07608613
37	0xbd6a20b2	-0.057160087
38	0xbd2938af	-0.041313823
39	0xbdcab352	-0.09897484
40	0x3d25c9f3	0.040475797
41	0x3d20c913	0.03925426
42	0x3d28c985	0.04120781
43	0xbe4d2a29	-0.20035614
44	0xbd04f692	-0.03246171
45	0x3cc94ef0	0.024573773
46	0xbd521e79	-0.051298592
47	0x3d354177	0.044251885
48	0xbea6ff86	-0.32616824
49	0xbdbee203	-0.09320452
50	0xbda3aa72	-0.07991494
51	0xbf1c0423	-0.6094381
52	0x3e3b6e53	0.18303804
53	0x3c49bb03	0.0123126535
54	0x3e015a93	0.12632208
55	0x3e45394d	0.1926014
56	0x3e242f1a	0.16033593
57	0xbe4594d3	-0.19295053
58	0xbddfabb9	-0.10921425
59	0xbe23c520	-0.15993166
60	0xbdcc26ae	-0.09968315
61	0xbe087398	-0.13325346
62	0xbea5f1ea	-0.32411128
63	0xbd282232	-0.041048236
64	0x3e286315	0.16444047
65	0x3d84008a	0.06445415
66	0xbd4d6131	-0.050141517
67	0x3d22f2b0	0.039782226
68	0x3e015cb0	0.12633014
69	0xba495496	-0.0007680146
70	0x3eac0724	0.33599198
71	0xbb695cba	-0.0035608248
72	0xbd876e1b	-0.06612798
73	0x3ddc6f33	0.10763397
74	0xbda0c334	-0.07849732
75	0xbebdaaf1	-0.3704448
76	0xbe8c02fa	-0.2734602
77	0x3e290023	0.16503958
78	0xbedcd293	-0.43129405
79	0xbeb78062	-0.35840136
80	0x3d1b4765	0.037909884
81	0xbd910183	-0.070803665
82	0xbbd52c48	-0.006505523
83	0xbd48996d	-0.048974443
84	0xbdad2c14	-0.08455673
85	0x3dabab37	0.08382266
86	0xbf0d7a27	-0.55264515
87	0x3e0f0c19	0.13969459
88	0x3e030cc8	0.12797844
89	0xbe3d4420	-0.18483019
90	0xbe6d9ead	-0.23205061
91	0xbe3ca363	-0.18421702
92	0xbe22dec5	-0.15905292
93	0x3e50202f	0.20324777
94	0xbe55d6de	-0.20882747
95	0xbe79e38d	-0.2440321
96	0xbd9fc827	-0.07801848
97	0x3d0cf686	0.03441479
98	0x3d5bab4b	0.053630155
99	0xbc3ad3c9	-0.011403033
100	0x3b8f9aaf	0.0043824534
101	0xbcdd3544	-0.027002938
102	0xbd2bec9a	-0.041973688
103	0x3d6aedd2	0.05735571
104	0x3d38d428	0.045124203
105	0x3d1092c4	0.035296217
106	0xbd1e2bbf	-0.03861594
107	0x3b7325a5	0.0037101295
108	0x3c05b22b	0.008160154
109	0x3cd070b1	0.02544436
110	0xbe069a8c	-0.13144892
111	0x3b2a69a0	0.0026002899
112	0x3d849b20	0.064749
113	0x3d5c0816	0.05371865
114	0x3d3e70ea	0.046494402
115	0x3dc0515e	0.093905196
116	0x3cd597dc	0.026073389
117	0x3bdb8a36	0.0066998256
118	0xbe654366	-0.22388992
119	0xbd674b3a	-0.056468226
120	0x3d0b53d4	0.03401549
121	0xbc604b06	-0.013689762
122	0xbd12f630	-0.035879314
123	0x3c1cdb2a	0.009573737
124	0x3cecc44d	0.028902197
125	0x3cac8dc3	0.021063691
126	0x3bb34e67	0.005471993
127	0xbdce2eae	-0.10067497
128	0xbc58de14	-0.013236541
129	0xbda2b978	-0.079455316
130	0xbe2f9735	-0.17147525
131	0xbc830c7b	-0.015997162
132	0x3c2738ea	0.01020644
133	0xbc98886c	-0.018619739
134	0xbdcc53b6	-0.09976904
135	0x3df1663e	0.11787079
136	0x3b92d8c2	0.004481406
137	0xbd1a529f	-0.03767645
138	0xbbf51082	-0.0074787745
139	0x3de25c96	0.110528156
140	0x3d02198e	0.031762652
141	0x3c360333	0.011109161
142	0x3d1672b7	0.036730494
143	0x3d5a95ef	0.053365644
144	0xbe4279c7	-0.18991767
145	0xbec55446	-0.38540858
146	0xbea655bb	-0.32487282
147	0xbee111b9	-0.43958834
148	0x3e2700f8	0.16308963
149	0x3def481f	0.11683678
150	0xbc76c2ca	-0.01506109
151	0xbc94ede0	-0.018179834
152	0xbeb3e596	-0.35136098
153	0xbe5fbfa4	-0.21850449
154	0xbd4bebf7	-0.04978558
155	0xbd30f7f1	-0.043205205
156	0xbde7ea8e	-0.11324035
157	0xbd2b8519	-0.04187498
158	0xbc1fa1ff	-0.009743213
159	0x3d4c6a1d	0.049905885
160	0x3c841427	0.01612289
161	0x3ec64c0d	0.38729897
162	0x3d387c5a	0.045040466
163	0xbe89d272	-0.2691837
164	0x3db7fa50	0.0898329
165	0x3decb9e0	0.1155889
166	0xbd1459f1	-0.036218587
167	0x3dd9bf35	0.10632173
168	0xbbb2bcfa	-0.0054546567
169	0x3e35ec80	0.17765999
170	0xbe6af68d	-0.22945614
171	0x3d04204a	0.032257356
172	0xbd5898b9	-0.052880023
173	0x3e900910	0.28131914
174	0xbe8e8f9a	-0.27843934
175	0xbe6137df	-0.2199397
176	0x3d9db4b6	0.077004835
177	0x3e084418	0.13307226
178	0xbe1d9ee0	-0.15392637
179	0xbbc5706a	-0.0060253637
180	0x3e7bc90a	0.24588409
181	0xbc8c367e	-0.017115828
182	0x3daaa043	0.08331349
183	0xbe079d45	-0.13243587
184	0xbe08f223	-0.13373618
185	0xbe6d4bd9	-0.23173465
186	0x3de8ca04	0.113666564
187	0x3ccfc741	0.025363566
188	0xbd1ec266	-0.03875961
189	0xbe68704e	-0.22699091
190	0xbe12bcd6	-0.14329848
191	0xbe92e5fb	-0.28691086
192	0x3dce69c7	0.10078769
193	0x3c10b232	0.008831548
194	0xbd88f028	-0.06686431
195	0x3d901f58	0.07037228
196	0x3c64ba81	0.013960482
197	0xbd35dbbe	-0.044399016
198	0xbdc9e4c4	-0.09858087
199	0xbc543571	-0.012952195
200	0xbe471b01	-0.19443895
201	0xbd0c2ea9	-0.034224186
202	0x3ce81ff6	0.028335553
203	0x3a3ccd25	0.00072022
204	0xbd14bad4	-0.036310986
205	0x3d099931	0.03359336
206	0x3d76f540	0.060292482
207	0x3ca1d78a	0.019756097
208	0xbc642aee	-0.013926251
209	0xbe68b506	-0.22725305
210	0x3d12a354	0.035800293
211	0xbe144ef9	-0.1448325
212	0xbd9454b6	-0.0724272
213	0xbcc1657f	-0.023607967
214	0xbdd523dd	-0.10407231
215	0xbd0512ba	-0.032488562
216	0x3c70b276	0.014690986
217	0xbd206c46	-0.039165758
218	0x3cb684e4	0.022280164
219	0x3d01e58c	0.031713054
220	0xbe27c772	-0.16384676
221	0xbd269d1c	-0.040677175
222	0x3cfa516f	0.030556409
223	0xbcfc7ad9	-0.030820297
224	0xbd52b14e	-0.051438622
225	0x3dd2e424	0.102974206
226	0xbe824050	-0.25439692
227	0x3d98acd7	0.074548416
228	0x3d04f17d	0.032456864
229	0xbd7f5262	-0.062334426
230	0xbdd516f8	-0.104047716
231	0xbdb4a56c	-0.08820614
232	0x3d4674f3	0.048451375
233	0x3d74738e	0.059680514
234	0xbc54ed85	-0.012996082
235	0xbe9a9ddd	-0.30198565
236	0xbd8e5515	-0.06949822
237	0x3d1104e8	0.03540507
238	0x3dc02a27	0.0938304
239	0xbc45be75	-0.012069334
240	0xbdcf68f3	-0.10127439
241	0xbd1db52a	-0.03850285
242	0x3e12d5a3	0.14339308
243	0x3d31a99e	0.04337465
244	0xbe03bf45	-0.12865932
245	0xb9864d12	-0.00025615894
246	0x3c624815	0.013811131
247	0x3d0d56f2	0.034506746
248	0xbdb5479a	-0.088515475
249	0xbdb00130	-0.085939765
250	0x3d8494e6	0.064737126
251	0x3d1d4633	0.038397025
252	0x3dd75fe1	0.10516334
253	0xbd7f6a5b	-0.062357288
254	0xbd82b43b	-0.063820325
255	0x3d468c6a	0.048473753

layer2.bias f4 [48]
0	0x3d4758ec	0.048668787
1	0xbd5684f7	-0.0523729
2	0x3e3fbdb1	0.18724705
3	0x3d7f3e63	0.062315356
4	0x3da7802e	0.08178745
5	0xbd7932b2	-0.060839362
6	0xbdb0042e	-0.08594547
7	0xbcb53bdc	-0.02212327
8	0xbdc18d41	-0.0945077
9	0xbda05dda	-0.07830401
10	0x3dd5d814	0.10441604
11	0x3d9f86a0	0.077893496
12	0x3d98826c	0.07446751
13	0x3e45a917	0.19302784
14	0xbd97ea57	-0.07417744
15	0xbe0875cb	-0.13326184
16	0x3e76f84c	0.24118155
17	0xbd8a112f	-0.06741559
18	0x3dc78e84	0.097439796
19	0xbd4dba77	-0.050226655
20	0xbd3ccb19	-0.046092127
21	0x3e181e1f	0.1485524
22	0x3d0388ee	0.03211301
23	0xbe3d1d38	-0.18468177
24	0x3e705ed3	0.23473673
25	0x3c01bad0	0.007918075
26	0xbdf73f09	-0.1207257
27	0xbd53df7e	-0.05172681
28	0xbe0a9d2c	-0.13536519
29	0x3da958c0	0.08268881
30	0xbe23fc86	-0.16014299
31	0xbdb90ea7	-0.09035998
32	0xbce02446	-0.027361047
33	0x3df01327	0.11722403
34	0x3db46b4f	0.0880953
35	0x3cdac82c	0.026706778
36	0xbd1031d1	-0.03520376
37	0xbdfe9c3c	-0.12432143
38	0xbd971378	-0.0737676
39	0x3e7a475e	0.24441287
40	0xbdeed7f3	-0.11662283
41	0xbc68a787	-0.014200098
42	0x3e0d7902	0.13815692
43	0xbe1bfbd5	-0.15232785
44	0x3e1a3092	0.1505759
45	0x3e036b05	0.12833793
46	0xbcebe281	-0.028794529
47	0x3e62959d	0.22127385

layer3.weight f4 [40, 48]
0	0xbe2b68f5	-0.16739257
1	0xbdd1be8c	-0.10241422
2	0x3de05fff	0.1095581
3	0x3db1d7bd	0.08683727
4	0xbd052afb	-0.032511692
5	0xbc5f8386	-0.0136421975
6	0xbe083f58	-0.13305414
7	0xbdeaf2da	-0.114721015
8	0x3d97aee4	0.074064046
9	0x3c745736	0.014913371
10	0xbd944b3a	-0.07240911
11	0xbb4b4038	-0.003101362
12	0xbe29e9eb	-0.16593139
13	0xbe2763ce	-0.16346666
14	0xbe117265	-0.14203794
15	0x3d41427f	0.047182556
16	0x3da8b1f4	0.08237067
17	0xbe04c7a4	-0.12966782
18	0xbd31286a	-0.043251432
19	0x3de8414f	0.113405816
20	0x3e126672	0.14296892
21	0x3c43f2ac	0.011959713
22	0xbd6e8f5e	-0.058242194
23	0x3e0de9d9	0.13858737
24	0xbdfeb05e	-0.12435983
25	0xbe00319d	-0.12518926
26	0xbceabaa7	-0.028653456
27	0x3d4a9b10	0.049464285
28	0x3cee0163	0.029053396
29	0x3b39d2d3	0.002835442
30	0x3dc1e92c	0.09468302
31	0xbd973192	-0.07382502
32	0xbd549b27	-0.051905777
33	0x3d24fbd6	0.040279232
34	0x3c7effe8	0.0155639425
35	0x3de3931f	0.111120455
36	0x3d5fcab8	0.054636687
37	0xbdca9782	-0.09892179
38	0x3ddfb28d	0.10922728
39	0x3d39bc57	0.04534563
40	0xbd76093c	-0.0600674
41	0xbdc4ebaa	-0.09615262
42	0xbd5e1be8	-0.054225832
43	0xbd19cd36	-0.03754922
44	0xbbcc1062	-0.006227539
45	0xbd8fdcce	-0.07024537
46	0xbc92a5b2	-0.017901275
47	0xbd835034	-0.06411782
48	0x3a837556	0.0010029476
49	0xbe812a52	-0.252276
50	0xbbe1f314	-0.0068954322
51	0x3e405b5c	0.18784851
52	0xbc361805	-0.011114125
53	0x3aba2761	0.001420241
54	0x3d575376	0.05256983
55	0xbdb51d08	-0.08843428
56	0xbd847560	-0.064677
57	0xbd76f75b	-0.06029449
58	0x3d223810	0.039604247
59	0x3ca9522b	0.020669064
60	0x3bfa0176	0.0076295687
61	0x3ce70f6e	0.0282056
62	0xbe426bd7	-0.1898645
63	0x3e878d57	0.2647502
64	0x3c1c7f12	0.00955178
65	0x3d13cc80	0.0360837
66	0x3d940c5b	0.07228919
67	0x3de7151d	0.11283324
68	0xbd9e119b	-0.07718202
69	0xbb12a990	-0.00223789
70	0x3cc6c9b0	0.024266094
71	0xbdbadf9d	-0.09124682
72	0x3d010701	0.03150082
73	0xbe0585ea	-0.13039365
74	0xbd98b8a9	-0.07457096
75	0x3cc093cf	0.02350798
76	0x3e51b5cb	0.20479505
77	0xbdab66f0	-0.08369243
78	0xbe28d2f1	-0.16486718
79	0xbaf9d47c	-0.0019060518
80	0xbc997ce6	-0.018736314
81	0xbd061864	-0.032738104
82	0x3e02b991	0.127661
83	0x3d26e04e	0.040741257
84	0x3de446f4	0.11146346
85	0x3ddb87ee	0.10719286
86	0xbe265dbe	-0.16246697
87	0x3d24e6c2	0.04025913
88	0xbcbd2d83	-0.02309299
89	0x3e1ebd4a	0.15501896
90	0xbc929424	-0.017892905
91	0x3df14632	0.11780967
92	0xbd194202	-0.037416466
93	0xbcd7cd9f	-0.026343165
94	0x3e2b3b66	0.16721877
95	0x3b5a4c6f	0.0033309718
96	0xbcb4250e	-0.021990325
97	0xbd6f1aff	-0.058375355
98	0xbc76f138	-0.0150721595
99	0xbe3c1df4	-0.18370801
100	0xbcaf9a07	-0.02143575
101	0xbdd21e5d	-0.102596976
102	0x3e033621	0.12813617
103	0x3e93a886	0.2883951
104	0x3c9bbef5	0.019011954
105	0x3db4656b	0.088084064
106	0xbc0129bf	-0.007883488
107	0x3cc1c4de	0.023653444
108	0x3c88d139	0.016701328
109	0xbce6d502	-0.028177742
110	0x3df84c8d	0.12123976
111	0xbe88eb51	-0.26742032
112	0x3c64a142	0.0139544625
113	0xbe3c5491	-0.18391635
114	0x3e1e7449	0.15474047
115	0x3d630dc3	0.055433046
116	0xbe2f556e	-0.17122433
117	0x3c8844dc	0.016634397
118	0xbe43f8ac	-0.1913783
119	0x3c877bff	0.016538618
120	0xbd005be8	-0.03133765
121	0xba489c4e	-0.0007652686
122	0x3de2be6f	0.110714786
123	0x3e1841d0	0.14868855
124	0xbe5d9bdb	-0.21641485
125	0x3d28e301	0.041232113
126	0x3d118314	0.035525396
127	0x3d08376a	0.033255972
128	0xbd6e48c1	-0.058174852
129	0x3d282293	0.041048598
130	0xbdcb5917	-0.09929102
131	0xbdce04bd	-0.100594975
132	0xbd73d7c6	-0.05953195
133	0xbcdf3879	-0.027248608
134	0x3d902542	0.07038356
135	0xbcd531b1	-0.026024671
136	0x3d058345	0.03259589
137	0xbda2ea5b	-0.07954856
138	0xbc7102e5	-0.014710163
139	0xbbabc35a	-0.0052417936
140	0x3bbbe765	0.0057343715
141	0xbcaf1eed	-0.021377051
142	0xbbcd41dd	-0.006263955
143	0xbc4df5ab	-0.012570779
144	0xbbc620d8	-0.0060463957
145	0xbe4a912d	-0.19781943
146	0x39c9ce6e	0.0003849151
147	0x3cf6c2df	0.030122219
148	0xbbb5011f	-0.0055238153
149	0xbd769339	-0.060198996
150	0x3de3de1d	0.11126349
151	0x3dee5107	0.116365485
152	0xbca19101	-0.019722464
153	0xbdc390d2	-0.09549107
154	0x3b89a209	0.0042002243
155	0x3b942111	0.0045205434
156	0x3b850dd0	0.0040604845
157	0x3c847ea9	0.016173678
158	0x3d10966a	0.035299696
159	0x3c183da7	0.009292043
160	0xbcffbba6	-0.031217407
161	0xbdb8eec0	-0.09029913
162	0x3d5e820c	0.05432324
163	0xbdaa8e7f	-0.0832796
164	0x3d15c660	0.03656614
165	0x3c2f20bf	0.01068896
166	0x3ce37a4e	0.02776828
167	0xbdb05d32	-0.086115256
168	0x3cbfb70d	0.023402715
169	0xbe9288ee	-0.28620094
170	0x3e122299	0.1427101
171	0xbce66645	-0.028124938
172	0xbd06f22b	-0.032945793
173	0xbc16e7a3	-0.0092105
174	0x3e0bb7a9	0.1364428
175	0xbdae27fa	-0.08503719
176	0x3d7dd15d	0.061967243
177	0xbc8f0d8b	-0.017462512
178	0xbd05d4fe	-0.03267383
179	0x3b1c114e	0.0023814025
180	0xbceab974	-0.028652884
181	0x3c66cef7	0.01408743
182	0xbcd133d6	-0.025537413
183	0x3ce4586c	0.027874194
184	0xbdbec674	-0.09315196
185	0xbd23f700	-0.04003048
186	0xbcc72c58	-0.024313137
187	0x3da129b7	0.078692846
188	0xbc609cce	-0.01370926
189	0xbac77228	-0.0015216516
190	0xbc49b21b	-0.01231053
191	0xbb8c56ae	-0.004282794
192	0xbccf0804	-0.025272377
193	0x3b7f10f9	0.0038920029
194	0xbc6e2068	-0.014534093
195	0x3e61a95e	0.22037265
196	0xbbf40b07	-0.0074476036
197	0xbc071068	-0.008243658
198	0x3cec08ba	0.028812755
199	0xbcae1c17	-0.021253629
200	0x3e616496	0.22011027
201	0x3d8e105b	0.06936713
202	0x3cc35ee2	0.023848955
203	0x3c71c3ea	0.014756182
204	0x3c5aaa8a	0.013346324
205	0xbc9f74eb	-0.01946493
206	0x3dacd5a5	0.08439187
207	0x3e809cac	0.2511953
208	0x3ca7cf5f	0.020484624
209	0x3d06f34c	0.03294687
210	0xbd963915	-0.07335106
211	0xbda3c347	-0.079962306
212	0x3df99ff1	0.121887095
213	0x3cca4150	0.024689347
214	0x3e09bc2a	0.13450685
215	0x3df26fe3	0.11837747
216	0xbc550449	-0.01300151
217	0xbd865462	-0.065590635
218	0x3dabacdc	0.0838258
219	0x3ca59ad0	0.020215422
220	0x3d76f7ae	0.0602948
221	0x3d945f8e	0.07244788
222	0xbd604f6e	-0.05476325
223	0xbdb0442d	-0.086067535
224	0xbd0a5eb0	-0.033781707
225	0xbaa59a19	-0.0012634426
226	0xbc5db3fc	-0.013531681
227	0x3d506209	0.050874744
228	0x3cd7f73d	0.02636301
229	0x3d965980	0.073412895
230	0xbc611606	-0.013738161
231	0x3c715e76	0.014731994
232	0xbdaaef62	-0.0834644
233	0x3d42736c	0.047473356
234	0xbd00fdc6	-0.031492017
235	0x3c6f8672	0.014619457
236	0x3c17cc27	0.009264982
237	0xbcb4e408	-0.02208139
238	0xbd9e6065	-0.077332295
239	0x3bf6a24c	0.0075266715
240	0x3b9fd90c	0.004878169
241	0xbdbb7ebc	-0.09155032
242	0x3a3c75da	0.0007189192
243	0x3e1c983e	0.15292451
244	0xbb584513	-0.0033000156
245	0xbbc649c0	-0.006051272
246	0xbdd8991f	-0.105760805
247	0x3a69266b	0.00088939694
248	0x3cb25c59	0.02177255
249	0x3cdae07e	0.026718374
250	0xbabaa48c	-0.0014239713
251	0x3ca82c3b	0.020528903
252	0x3c82d2d1	0.015969666
253	0xbc4928e5	-0.012277816
254	0x3cb84dc4	0.022498019
255	0x3e539f87	0.20666324

layer3.bias f4 [40]
0	0xbe0c8c96	-0.13725504
1	0x3e7072c1	0.23481275
2	0x3efcad12	0.49350792
3	0x3e235239	0.15949334
4	0x3e05019a	0.12988892
5	0x3dee25f8	0.11628336
6	0xbdfe688e	-0.12422286
7	0x3e46f553	0.19429521
8	0x3e0e44fd	0.13893504
9	0xbd8ce73b	-0.06880041
10	0xbdce956e	-0.10087095
11	0x3dddb99a	0.10826416
12	0x3c353da8	0.011062063
13	0x3d81f3ee	0.06345354
14	0xbcadec12	-0.021230731
15	0x3e29074d	0.16506691
16	0x3ec21019	0.37902907
17	0x3eb815ed	0.35954228
18	0x3ce2d189	0.027687805
19	0x3e4531c2	0.19257262
20	0xbdb31bab	-0.087455116
21	0xbae16fef	-0.0017199497
22	0xbdfca657	-0.12336414
23	0x3e771775	0.24130042
24	0x3de6cf83	0.112700485
25	0xbd16c1d3	-0.03680594
26	0x3e8c545f	0.2740812
27	0x3e1da2a7	0.15394078
28	0xbd7dd4c6	-0.061970495
29	0xbd16ec09	-0.036846194
30	0x3e8b1b5e	0.27169317
31	0x3e0c001e	0.1367192
32	0xbe0bc016	-0.13647494
33	0x3e8a4513	0.27005824
34	0x3e2b5147	0.16730224
35	0xbdfaa219	-0.12237949
36	0x3dbdbc1f	0.09264397
37	0xbde0fec3	-0.10986092
38	0x3e180c50	0.14848447
39	0xbe2b2115	-0.16711839

exp_avg f4 [48, 42]
0	0xa34e7e44	-1.119402e-17
1	0x00000004	6e-45
2	0x00000004	6e-45
3	0x00000000	0.0
4	0x0155e757	3.92879e-38
5	0x3c9c601e	0.019088801
6	0x00000004	6e-45
7	0x00000004	6e-45
8	0x00000004	6e-45
9	0xb9dc3e95	-0.00042008297
10	0xba4af0ad	-0.0007741552
11	0x00000004	6e-45
12	0x00000000	0.0
13	0xa18febf2	-9.752511e-19
14	0x00000004	6e-45
15	0x3b36c170	0.0027886294
16	0x00000000	0.0
17	0xb8fb088a	-0.00011970203
18	0x00000000	0.0
19	0x3a26ef62	0.0006368068
20	0xbc5af6c7	-0.0133645
21	0x3762bdd0	1.3514844e-05
22	0x00000004	6e-45
23	0x00000000	0.0
24	0x3b5826b9	0.0032982065
25	0x34a7579c	3.1169918e-07
26	0x3a8d95e4	0.0010802117
27	0x00000004	6e-45
28	0x00000000	0.0
29	0x3b9acdf2	0.0047242576
30	0x00000000	0.0
31	0xba113870	-0.0005539721
32	0x1a5ed958	4.6084093e-23
33	0x00000004	6e-45
34	0x80000004	-6e-45
35	0x00000004	6e-45
36	0x00000004	6e-45
37	0x00000004	6e-45
38	0x00000004	6e-45
39	0xba3e8232	-0.00072673254
40	0x00000004	6e-45
41	0x00000000	0.0
42	0xbc1cb065	-0.00956354
43	0xbc616bb8	-0.013758592
44	0x3a234402	0.00062280905
45	0xb899da06	-7.3362186e-05
46	0xbc9bc6a9	-0.019015627
47	0x3bde4e99	0.006784272
48	0xbc08fdb0	-0.008361265
49	0x3a267666	0.000635004
50	0x3c52716b	0.012844424
51	0x3c01ddb8	0.007926397
52	0x388154da	6.167004e-05
53	0x3bba9523	0.005694048
54	0x3a5a2b6d	0.0008322511
55	0xbb4d6383	-0.0031339831
56	0xbbc846ba	-0.006111947
57	0x3a4f596c	0.0007909748
58	0x00000004	6e-45
59	0x3b30d0be	0.0026979889
60	0xbb6940c4	-0.0035591582
61	0xbc579628	-0.013158359
62	0x3c6aaee6	0.014323926
63	0xbaba863a	-0.0014230676
64	0xba894d5b	-0.0010475324
65	0x3b9b0ffb	0.0047321296
66	0x3b7fe047	0.0039043592
67	0x3a4bb945	0.0007771443
68	0xbc4504bf	-0.012025057
69	0x3c794c27	0.01521591
70	0x3bce6e06	0.006299737
71	0x393a7b2d	0.00017784229
72	0x3bf7bffb	0.0075607277
73	0xb8f90f81	-0.00011876133
74	0x3ac64eb4	0.0015129657
75	0x39b00faa	0.00033581007
76	0x35d459e2	1.582139e-06
77	0x3c84c1ee	0.016205754
78	0xbcda922b	-0.026681026
79	0xbb2769ea	-0.0025545307
80	0xbc2aeac9	-0.010431954
81	0xbaad0eaa	-0.0013203223
82	0xbb0b8c61	-0.002129339
83	0xbcb87034	-0.02251444
84	0x0000108e	5.939e-42
85	0x00000000	0.0
86	0x00000000	0.0
87	0x3cb953bc	0.022622935
88	0x80000004	-6e-45
89	0x00000004	6e-45
90	0x00000004	6e-45
91	0x00000000	0.0
92	0x3a2be080	0.00065565854
93	0x00000004	6e-45
94	0x39ce29e0	0.0003932258
95	0xba59c61c	-0.00083074137
96	0x00000000	0.0
97	0xba780adf	-0.0009462069
98	0x00003740	1.982e-41
99	0x00000004	6e-45
100	0x2f684d2a	2.1127691e-10
101	0xba572078	-0.00082064373
102	0x00000004	6e-45
103	0x3bb5422c	0.00553157
104	0x3c10862c	0.008821052
105	0x00000004	6e-45
106	0x12c1e6f4	1.2236947e-27
107	0x12e8f489	1.4701541e-27
108	0x3ba83791	0.005133577
109	0xbb0000a7	-0.0019531639
110	0x3b5df2ad	0.003386657
111	0x3ac164bf	0.0014754756
112	0x3c83cf30	0.016090006
113	0xb8e333a2	-0.00010833821
114	0xba6751d9	-0.0008824147
115	0x1171ffc9	1.9090368e-28
116	0x10d18265	8.263687e-29
117	0x16b574fa	2.931595e-25
118	0x38f42c10	0.00011643034
119	0x38292d2f	4.033482e-05
120	0x3a182f40	0.00058053806
121	0x22747dda	3.3134792e-18
122	0xbb56ba1c	-0.0032764738
123	0x390b0bbd	0.00013260446
124	0x3c6f31f0	0.014599308
125	0x38c19599	9.230822e-05
126	0x3bbd1058	0.0057697706
127	0x3c25927d	0.010105726
128	0x3a34289c	0.00068725063
129	0xbc6c230d	-0.014412654
130	0xba1c40a8	-0.0005960562
131	0xbb168b55	-0.0022971232
132	0xbbe3c97c	-0.006951509
133	0x372c72ae	1.02787e-05
134	0x3c9b0fc6	0.01892842
135	0x3ba69501	0.0050836806
136	0xb8c95737	-9.600672e-05
137	0x3c267c8a	0.010161528
138	0x39fad713	0.0004784396
139	0x3adb29f0	0.0016720872
140	0x3b6eba67	0.0036427022
141	0x3a2ee85f	0.0006672199
142	0x3b60624d	0.003423828
143	0x379a55f6	1.839826e-05
144	0x387ebb98	6.073303e-05
145	0xbba991e6	-0.005174863
146	0x3caf0447	0.021364344
147	0x39a09808	0.0003063085
148	0x3cbb09df	0.022831855
149	0x3b5570d2	0.0032568467
150	0xbc0dbec1	-0.008651436
151	0xbb8a0685	-0.004212203
152	0x3b4c1d2f	0.0031145324
153	0x3c461db1	0.01209204
154	0xbbe0571b	-0.0068463213
155	0x3a2afb7c	0.00065224594
156	0x3c2b0ab2	0.010439562
157	0x00000004	6e-45
158	0xbad1d26d	-0.0016008146
159	0xbb8bdcb3	-0.0042682528
160	0x3b039a29	0.00200809
161	0x3cd6d669	0.026225286
162	0xbc40e0b6	-0.011772325
163	0x00000004	6e-45
164	0x3ca4321d	0.020043427
165	0xbaa204fa	-0.0012361102
166	0xbbdcfa46	-0.006743702
167	0xbb4ab110	-0.0030928291
168	0x3bb2486b	0.005440762
169	0x38850f01	6.344729e-05
170	0x3ad03a16	0.0015886452
171	0xbae911d4	-0.0017781802
172	0x00000004	6e-45
173	0xbc26fa99	-0.010191583
174	0xbbdbe553	-0.006710687
175	0x3a2a697f	0.00065007055
176	0x3cfb1a71	0.030652257
177	0xbb0184cc	-0.001976299
178	0x390f54a8	0.0001366908
179	0x365f7e1b	3.3302993e-06
180	0xbc1a81f6	-0.009430399
181	0x35133976	5.4845384e-07
182	0x3b987069	0.004652072
183	0x3b925432	0.0044656033
184	0xbae6f68e	-0.0017621086
185	0x2d80b24e	1.4631098e-11
186	0xb99b47ad	-0.00029617306
187	0xbdaed68d	-0.08537016
188	0xbce00c1a	-0.02734952
189	0x38a673e1	7.937081e-05
190	0x3b60d06a	0.0034303912
191	0x00000004	6e-45
192	0xbc89404a	-0.016754288
193	0xbab1d32f	-0.0013566966
194	0x3acc7013	0.0015597366
195	0x3c763fa2	0.01502982
196	0xbca24f85	-0.019813308
197	0x3b52a2aa	0.0032140412
198	0x3aa19266	0.0012326955
199	0x39a5129f	0.00031485126
200	0x3bb17f70	0.005416803
201	0xbb2c7283	-0.0026313371
202	0xb5304e2f	-6.567888e-07
203	0x3aed4ef3	0.0018105194
204	0xbb6201b3	-0.0034485876
205	0x3b8f12e0	0.0043662637
206	0xb99027ec	-0.00027495564
207	0x00000004	6e-45
208	0xbc180268	-0.009277917
209	0xbda40fe5	-0.08010844
210	0xbad8fbc8	-0.0016554529
211	0x3c2fb6c1	0.010724724
212	0xbca420e5	-0.020035217
213	0x3b805f9d	0.003917648
214	0xbbc6153e	-0.0060450127
215	0x3c67a166	0.0141376015
216	0x3a506888	0.00079501467
217	0x3c5f8e14	0.013644714
218	0x3b93d3b4	0.004511321
219	0xbc43726d	-0.011929137
220	0x3a0a34fb	0.0005272177
221	0xbae32824	-0.0017330688
222	0x3b84b0dd	0.004049404
223	0xbb200422	-0.0024416526
224	0xbb5a1165	-0.0033274528
225	0x3b1e983d	0.0024199628
226	0x3bc256fe	0.0059307804
227	0xbac46097	-0.0014982399
228	0x3c121880	0.008916974
229	0xbc35e4b4	-0.01110189
230	0x3aa21fa5	0.001236905
231	0x3b764fe7	0.0037584247
232	0xbbb86ab9	-0.0056279567
233	0xbc3de41d	-0.011590031
234	0xba11e60a	-0.00055655895
235	0xb9f0d490	-0.0004593474
236	0x3a162e07	0.00057289045
237	0xbb0d59d5	-0.0021568437
238	0xbc0f5e3f	-0.008750497
239	0x3cdbf120	0.026848376
240	0xbb998aab	-0.00468572
241	0x3b77513f	0.0037737635
242	0x3be2d04f	0.006921805
243	0xbbc12f02	-0.0058954963
244	0xbc76495d	-0.01503214
245	0x3b8011b1	0.003908359
246	0xbceada49	-0.02866854
247	0xbb1e7dcc	-0.0024183867
248	0xba711b0f	-0.00091974525
249	0xb90db780	-0.00013515167
250	0x3cb95ea9	0.022628145
251	0x3cf1e877	0.029529793
252	0xbb8b4418	-0.0042500608
253	0x3c9a5f20	0.018844187
254	0x00000004	6e-45
255	0xb4b4a13d	-3.364493e-07

exp_avg_sq f4 [48, 42]
0	0x38cfe6be	9.913508e-05
1	0x3436c124	1.7020335e-07
2	0x2f590805	1.9738884e-10
3	0x00000000	0.0
4	0x37a0dfed	1.917776e-05
5	0x3b23b341	0.002497867
6	0x34dd2a28	4.119513e-07
7	0x345cfcaf	2.0581022e-07
8	0x38f73dd1	0.00011789392
9	0x3763cf6b	1.3578548e-05
10	0x3b0e7460	0.0021736845
11	0x31503b8c	3.0301832e-09
12	0x00000000	0.0
13	0x32f019e2	2.7951447e-08
14	0x33af3b37	8.159844e-08
15	0x381c786e	3.7305457e-05
16	0x00000000	0.0
17	0x3a425fe0	0.0007414799
18	0x00000000	0.0
19	0x3968b0a8	0.00022191054
20	0x3acd4a97	0.0015662488
21	0x3ab97ac2	0.0014150965
22	0x352714a3	6.224238e-07
23	0x00000000	0.0
24	0x3a275da7	0.00063845
25	0x381bbbd6	3.7129816e-05
26	0x39271544	0.00015934283
27	0x368805c7	4.0537884e-06
28	0x00000000	0.0
29	0x3a75eee9	0.00093816087
30	0x00000000	0.0
31	0x396a82ee	0.00022364754
32	0x38ac7e77	8.225155e-05
33	0x331fd7f8	3.7216495e-08
34	0x35aff3d1	1.3109476e-06
35	0x2a02167e	1.1554123e-13
36	0x389d5f53	7.504099e-05
37	0x2f99599c	2.789421e-10
38	0x2f6196dd	2.0517228e-10
39	0x3a57d423	0.000823321
40	0x328fd10e	1.6742458e-08
41	0x00000000	0.0
42	0x3b3c7881	0.002875835
43	0x3b1710b8	0.0023050737
44	0x3b197094	0.002341305
45	0x3a9ada5e	0.0011814346
46	0x3b1295bd	0.0022367083
47	0x3aa12fe2	0.0012297595
48	0x3b286370	0.0025694035
49	0x3ae0dcf1	0.001715569
50	0x3ab58f7f	0.0013851969
51	0x3b38605d	0.002813361
52	0x3a846f06	0.0010103888
53	0x3aca94f1	0.0015455765
54	0x3a343ad4	0.0006875221
55	0x39a3f570	0.00031272648
56	0x399a9f2c	0.0002949176
57	0x36ef2601	7.1271793e-06
58	0x35bb07ae	1.3934821e-06
59	0x3bb00849	0.0053720814
60	0x3b21c5c6	0.0024684533
61	0x3ab9b480	0.0014168173
62	0x3b1eb21f	0.0024215055
63	0x3b1a2c4e	0.0023524943
64	0x3b0d8375	0.0021593247
65	0x3a81368d	0.0009858176
66	0x3a4b0fc7	0.00077461865
67	0x3b3f3f32	0.0029181954
68	0x3b16090b	0.0022893574
69	0x3b5afad1	0.0033413658
70	0x3abee5f7	0.0014564384
71	0x3a330e52	0.0006830442
72	0x3a00f0ae	0.00049186766
73	0x394354b9	0.00018628211
74	0x39332d8a	0.00017087735
75	0x379413f8	1.7652274e-05
76	0x374e33cc	1.2290617e-05
77	0x3ae5650d	0.0017501429
78	0x3b9695c8	0.004595492
79	0x3a51adc6	0.00079986115
80	0x3a349be9	0.00068896875
81	0x39d0a262	0.00039793836
82	0x39d8cf89	0.00041353356
83	0x3b9d6916	0.004803787
84	0x364b1c5b	3.0265862e-06
85	0x00000000	0.0
86	0x00000000	0.0
87	0x3c6e4584	0.014542941
88	0x369e2a3a	4.7136828e-06
89	0x36dd8344	6.6015946e-06
90	0x360cbd8d	2.0971959e-06
91	0x00000000	0.0
92	0x3913cda2	0.00014095617
93	0x3532126e	6.6336986e-07
94	0x3bee9a29	0.007281561
95	0x3a131b1f	0.00056116463
96	0x00000000	0.0
97	0x3979221e	0.000237592
98	0x34a36491	3.0434288e-07
99	0x2f8f4af9	2.606482e-10
100	0x3928a06c	0.0001608149
101	0x3a13786c	0.0005625549
102	0x35f1c243	1.8012437e-06
103	0x3a813e44	0.0009860476
104	0x3a9779dc	0.0011556703
105	0x32f91cd8	2.9000532e-08
106	0x3662aa2f	3.3775684e-06
107	0x34dd88aa	4.1263894e-07
108	0x3aae00fc	0.001327544
109	0x3ac18865	0.001476538
110	0x39e646bc	0.0004392172
111	0x3b8ac3b8	0.0042347573
112	0x3c5133a5	0.012768661
113	0x37b405c2	2.1460353e-05
114	0x3a1c4d42	0.000596244
115	0x36e81d00	6.917515e-06
116	0x34452a80	1.8362516e-07
117	0x3824232d	3.9133407e-05
118	0x383693f5	4.3529977e-05
119	0x3a97082c	0.0011522821
120	0x3a331263	0.0006831048
121	0x35346f17	6.721688e-07
122	0x3afa1aaa	0.0019081433
123	0x3ac038bf	0.0014665349
124	0x3ae51582	0.0017477723
125	0x393485e4	0.00017216016
126	0x3c23f93a	0.010008151
127	0x3b436ffe	0.0029821391
128	0x38f778a5	0.000118003496
129	0x3c3ff9b9	0.011717253
130	0x3805cf0d	3.1902502e-05
131	0x3b8c7c80	0.0042873025
132	0x3b2f93e7	0.0026791038
133	0x3a005bf2	0.00048965134
134	0x3ac07be6	0.0014685362
135	0x3b8212f6	0.0039695455
136	0x38dfe99c	0.00010676982
137	0x3b211d11	0.0024583975
138	0x3b009932	0.0019622562
139	0x3b304700	0.0026897788
140	0x3b83194e	0.0040008193
141	0x3abf6262	0.0014601464
142	0x3c0d3e49	0.008620807
143	0x3996b11e	0.00028742192
144	0x351962e9	5.7140875e-07
145	0x3a9ae4c7	0.0011817449
146	0x3bb0c60f	0.005394704
147	0x3a705d0d	0.0009169139
148	0x3b4d70e9	0.0031347817
149	0x3abfa0a9	0.0014620024
150	0x3a7941c0	0.00095083937
151	0x3a3b32f2	0.00071410753
152	0x3b165c84	0.0022943327
153	0x3ad23346	0.0016037009
154	0x3c2dfcdf	0.010619371
155	0x3a9b84f2	0.0011865182
156	0x3a7cfa33	0.00096503197
157	0x38979f89	7.229957e-05
158	0x39b4fbed	0.00034519975
159	0x3b0f96d5	0.0021909971
160	0x3a19d2dd	0.0005867908
161	0x3bea867b	0.0071571446
162	0x3acc53df	0.001558896
163	0x35acd7bc	1.2877786e-06
164	0x3c36043f	0.011109411
165	0x3b8daf01	0.0043238406
166	0x3c22e051	0.0099411765
167	0x3b83f8d2	0.0040274644
168	0x3996ab73	0.0002873797
169	0x39fd4a9e	0.00048311515
170	0x3b77e80e	0.0037827524
171	0x3bde8e38	0.006791856
172	0x371f45a2	9.493351e-06
173	0x3b20a58b	0.0024512734
174	0x3bab2510	0.005222924
175	0x3a51cce8	0.00080032507
176	0x3b9641ae	0.0045854663
177	0x3acf39bc	0.0015810053
178	0x389c7928	7.461227e-05
179	0x36e6f992	6.883588e-06
180	0x3c0aa498	0.008462094
181	0x39207c64	0.00015305128
182	0x3b032620	0.0020011738
183	0x3a9ffa9b	0.0012205424
184	0x37264385	9.910092e-06
185	0x359decfc	1.1766383e-06
186	0x37c4fea9	2.3483606e-05
187	0x3c56fdb6	0.013122013
188	0x3b3bb6ac	0.0028642816
189	0x3ad21af0	0.0016029757
190	0x39fb4c95	0.0004793151
191	0x2f57138b	1.9561079e-10
192	0x3b16dae4	0.0023018653
193	0x3b09b095	0.0021009792
194	0x3bb589fa	0.0055401297
195	0x3a291a32	0.0006450742
196	0x3c1b7e82	0.009490611
197	0x3ac7e3d8	0.0015250398
198	0x37194f96	9.138041e-06
199	0x3a02f557	0.0004995665
200	0x3a2cebd4	0.00065964204
201	0x3ac107b2	0.0014727025
202	0x38165dbf	3.5850095e-05
203	0x3aaaae96	0.0013022001
204	0x3bf21712	0.007388004
205	0x3aa8cab7	0.0012877797
206	0x3a66ff14	0.00088118133
207	0x2d958913	1.7000212e-11
208	0x3bc7a735	0.0060929307
209	0x3c9149b2	0.017735336
210	0x3bf6afc7	0.0075282785
211	0x3c0b59a8	0.008505262
212	0x3c25379c	0.010084059
213	0x3b0247a1	0.001987912
214	0x3bfc41de	0.0076982817
215	0x3b7c4601	0.0038493874
216	0x3b84968d	0.0040462674
217	0x3b96f912	0.004607328
218	0x3bc22276	0.005924518
219	0x3c299233	0.010349798
220	0x3b1be747	0.0023788975
221	0x3a46c1d6	0.00075819844
222	0x3b5992ad	0.0033198998
223	0x3a8e3253	0.0010848738
224	0x3a0c6bda	0.00053566473
225	0x39edc98a	0.0004535432
226	0x3a93891f	0.0011256075
227	0x3a9768b5	0.0011551591
228	0x3b223a25	0.0024753895
229	0x3b853555	0.0040651956
230	0x3b03302f	0.0020017733
231	0x3b7628b6	0.0037560887
232	0x3b540bc6	0.003235565
233	0x3ad93c17	0.0016573694
234	0x3a6110ba	0.00085855613
235	0x3b269f59	0.0025424568
236	0x3b723d61	0.0036962854
237	0x3b2ad335	0.002606583
238	0x3be81f07	0.007083777
239	0x3b3221e1	0.0027180838
240	0x3a6aee3e	0.00089618925
241	0x39652df2	0.00021856258
242	0x39b1a207	0.0003388079
243	0x3b80923f	0.003923684
244	0x3a993fed	0.0011692025
245	0x3a8781ec	0.0010338402
246	0x3ba34c00	0.004983425
247	0x3ade8c65	0.0016979097
248	0x3ac00482	0.0014649781
249	0x3ada4b01	0.0016654433
250	0x3ba37f36	0.00498953
251	0x3c12645a	0.0089350585
252	0x3adfbe1b	0.0017070206
253	0x3b599487	0.0033200101
254	0x37588b1a	1.290699e-05
255	0x36fff14c	7.627683e-06

exp_avg f4 [48]
0	0x3c0061b9	0.007835799
1	0xbcc0b15c	-0.023522072
2	0x3d111bbf	0.03542685
3	0x3d573ab2	0.05254621
4	0xbdc716ee	-0.0972117
5	0x3c34f6ab	0.011045138
6	0x3d205af7	0.03914925
7	0x3d08bfb1	0.033385936
8	0xbd325153	-0.043534588
9	0xbd19ec33	-0.037578773
10	0xbcb345bd	-0.02188384
11	0xbd02825e	-0.03186261
12	0x3c98b59a	0.018641282
13	0xbc15778f	-0.009122743
14	0x3afd9395	0.0019346351
15	0x3cca8542	0.024721745
16	0x3ced11a6	0.02893908
17	0x3ba363e8	0.004986275
18	0xbc36d6a1	-0.01115957
19	0xbdbc7d70	-0.09203613
20	0xbba87505	-0.005140903
21	0x3c62a16d	0.013832432
22	0x3c714ccb	0.0147277815
23	0xbd103607	-0.035207774
24	0x3c9581a0	0.018250287
25	0xbc91a4f0	-0.017778844
26	0x3cc7135a	0.02430122
27	0x3c588032	0.013214158
28	0xbd225dca	-0.039640225
29	0x3ccc7910	0.02496007
30	0xbc6f4099	-0.014602804
31	0xbc9e80ec	-0.019348584
32	0x3c8a9a5f	0.016919313
33	0x3c35817c	0.011078235
34	0xbd3a1ef1	-0.045439664
35	0xbcd0a2b4	-0.025468208
36	0x3c8e5fa5	0.017379591
37	0xbc21b640	-0.009870112
38	0x3b93b601	0.0045077805
39	0x3c9b3987	0.01894833
40	0x3c633002	0.013866426
41	0xbcdfd42e	-0.027322855
42	0xbcd0cad7	-0.025487347
43	0x3d4c4a48	0.049875528
44	0xbbe2d006	-0.006921771
45	0xbd84a6c3	-0.0647712
46	0xbd0f99a3	-0.03505863
47	0x3c8c004a	0.017089982

exp_avg_sq f4 [48]
0	0x3b973279	0.004614171
1	0x3c4b01b8	0.0123905465
2	0x3cdf8c24	0.027288504
3	0x3d483980	0.04888296
4	0x3d35bbae	0.04436844
5	0x3ce11589	0.02747609
6	0x3cca4b81	0.024694206
7	0x3d7d8f74	0.061904386
8	0x3dd0e791	0.10200418
9	0x3cca4433	0.024690723
10	0x3c84cc49	0.016210692
11	0x3cb30082	0.021850828
12	0x3c55a618	0.013040088
13	0x3ce92d2e	0.028463926
14	0x3bb3ab90	0.0054830983
15	0x3c7386c3	0.014863673
16	0x3d334d2f	0.04377478
17	0x3e0eacbd	0.13933082
18	0x3caa9553	0.020823156
19	0x3d621cbf	0.055203196
20	0x3cbf6c02	0.023366932
21	0x3d17a9cf	0.037027176
22	0x3d215d10	0.039395392
23	0x3cc26e20	0.023734152
24	0x3d74cc95	0.059765417
25	0x3be3740d	0.0069413246
26	0x3c99e0ea	0.018784005
27	0x3c8f0fbe	0.017463561
28	0x3d6f9e1a	0.058500387
29	0x3cbdba7e	0.023160215
30	0x3d8a9ac8	0.067678034
31	0x3ca9d0dc	0.020729475
32	0x3d132d97	0.03593215
33	0x3cf2e862	0.029651824
34	0x3ce0aaec	0.027425252
35	0x3d8ed104	0.0697346
36	0x3c1260c4	0.008934204
37	0x3cd3f4ad	0.025873506
38	0x3b783d88	0.0037878472
39	0x3d6eb0e5	0.05827417
40	0x3d00d710	0.0314551
41	0x3ce04460	0.027376354
42	0x3cf01efb	0.029311648
43	0x3d019333	0.03163452
44	0x3ce92f84	0.02846504
45	0x3cccb81e	0.024990138
46	0x3c98badd	0.01864379
47	0x3c81b388	0.015832677

exp_avg f4 [48, 48]
0	0xb987a52c	-0.0002587227
1	0x3c9ea50b	0.019365808
2	0xbb8f5d99	-0.0043751714
3	0x3c00dd24	0.007865224
4	0xbc258dd1	-0.010104612
5	0x3b2e52a6	0.0026599555
6	0xbb05c704	-0.0020412812
7	0xba82c361	-0.000997644
8	0xbb0f5182	-0.002186865
9	0x3b9c1ea5	0.0047643953
10	0xbc332f7f	-0.010936617
11	0x3c8d686a	0.017261703
12	0x3b3e1863	0.0029006235
13	0x3c0e2e3f	0.008678018
14	0x399b3e91	0.0002961052
15	0xbb58cd74	-0.0033081444
16	0xbc1e9529	-0.009679117
17	0x3b2354bf	0.0024922339
18	0xbc24e4c1	-0.010064305
19	0x3bea5c94	0.0071521495
20	0xb9df931b	-0.00042643477
21	0xbc74f5b3	-0.014951157
22	0xbaeae214	-0.001792016
23	0x3adc85ba	0.0016824522
24	0xbc47fc74	-0.012206186
25	0xb9c6607f	-0.00037837398
26	0xbb24815f	-0.0025101525
27	0xba94fe15	-0.0011367226
28	0x3a5160b5	0.0007987128
29	0xba9fa200	-0.0012179017
30	0x3bf8b977	0.0075904685
31	0x37a2bf31	1.9400935e-05
32	0xb9ee003a	-0.00045395066
33	0x399f7301	0.00030412528
34	0x3b669905	0.0035186422
35	0x3b57d4c6	0.003293322
36	0x3c413bfc	0.011794087
37	0x3a9e37bc	0.0012071053
38	0x37f06e1d	2.8661505e-05
39	0x3b024171	0.0019875432
40	0xba49100e	-0.0007669934
41	0x3c21155a	0.009831751
42	0x3cf71ad8	0.030164167
43	0xbb04ee06	-0.0020283475
44	0x3b0869bf	0.0020814983
45	0xba702bf1	-0.0009161821
46	0xbbc43016	-0.0059871776
47	0xbc175032	-0.009235429
48	0xb897a6d8	-7.231318e-05
49	0x3a8a5cae	0.0010556185
50	0x00000072	1.6e-43
51	0x3b1bf737	0.0023798475
52	0x3b7c5032	0.0038499949
53	0x3b85c570	0.0040823743
54	0x3b83f5a1	0.004027084
55	0x3accd692	0.0015627912
56	0xb982344b	-0.00024834494
57	0xba42aafc	-0.00074259914
58	0x3b323888	0.002719434
59	0x3a0ded02	0.000541404
60	0xb9aad97a	-0.0003258696
61	0x2f756e35	2.2321774e-10
62	0x39040d6c	0.00012593501
63	0x3b079056	0.0020685396
64	0x3b007a02	0.0019603972
65	0x3a262241	0.00063375017
66	0x3a156eba	0.00057003985
67	0x3a9c9102	0.0011945071
68	0x3b8ef595	0.0043627718
69	0x3b605ece	0.0034236195
70	0x3ba1b7ef	0.0049352567
71	0x3b0ad328	0.0021182988
72	0xb9224e3d	-0.0001547867
73	0xb44dab10	-1.9154345e-07
74	0x80000004	-6e-45
75	0x398d5daf	0.00026963415
76	0x0cd5134c	3.282946e-31
77	0x3b77239a	0.003771043
78	0x3a8b4d71	0.0010627938
79	0x38f7ea8d	0.00011821566
80	0x3aad6c86	0.0013231195
81	0x3b00b749	0.0019640496
82	0xb63fe024	-2.8591685e-06
83	0xb8cc8d44	-9.753791e-05
84	0xba83d7ef	-0.001005886
85	0x3bb04b14	0.0053800438
86	0x37ec187d	2.8144796e-05
87	0x3a92fd09	0.0011214326
88	0x3a8a23be	0.0010539216
89	0xb8d235e1	-0.00010023616
90	0x3b0bc2e0	0.0021325871
91	0xb8c3ee1d	-9.342677e-05
92	0x3ace893f	0.0015757455
93	0xba0407ee	-0.0005036582
94	0x3a1bbb0d	0.00059406535
95	0xba46c185	-0.0007581937
96	0xb9d3532b	-0.0004030702
97	0x3c773c2e	0.015090032
98	0xbb746512	-0.0037291688
99	0x3bea3ac0	0.007148117
100	0xbba31660	-0.0049770325
101	0x3a7ef094	0.000972518
102	0xbbc1ed3f	-0.0059181745
103	0xb96e044b	-0.00022699048
104	0xb8b734e3	-8.735971e-05
105	0xbbc54330	-0.0060199723
106	0xba09a1df	-0.0005250256
107	0x3c914f5f	0.017738042
108	0xbb9a3d71	-0.0047070314
109	0x3c4cec1e	0.012507467
110	0x38c50d2d	9.396146e-05
111	0xbbf74f90	-0.0075473264
112	0xbbd9465d	-0.0066307024
113	0x3aca6810	0.001544239
114	0xbbb1a17b	-0.0054208613
115	0x3bc38c37	0.0059676426
116	0x3b5eb2a4	0.003398099
117	0xbc8ec419	-0.017427491
118	0xbaaea011	-0.001332285
119	0xbb644a2f	-0.0034834256
120	0xbb880f56	-0.004152219
121	0x3a01c9d4	0.0004951034
122	0xbb51dfab	-0.0032024186
123	0x3a618095	0.0008602229
124	0xb9be49dd	-0.00036294656
125	0xbbf301a0	-0.007415965
126	0x3b8c2369	0.004276682
127	0x3a2ba31f	0.0006547439
128	0xba805e99	-0.0009793817
129	0xbb22a203	-0.0024815805
130	0x3b0bc67f	0.002132803
131	0xbbe3c4cb	-0.00695095
132	0x3bd9bf45	0.0066451156
133	0x3b40d834	0.0029425742
134	0xb9192f95	-0.00014608943
135	0x3b33a769	0.0027413017
136	0xbc086cdd	-0.008326736
137	0x3b6395cb	0.0034726735
138	0x3ca1bedb	0.019744327
139	0xbb217da1	-0.002464153
140	0x3ad92309	0.0016566227
141	0xbb8696f5	-0.004107351
142	0xbb5a5c90	-0.0033319332
143	0xbc0af135	-0.00848036
144	0x3a2383bb	0.0006237586
145	0x3bd73221	0.006567255
146	0x3981cf2f	0.0002475916
147	0xb886c19f	-6.425683e-05
148	0x3b05a25b	0.002039096
149	0x3c375453	0.011189538
150	0x3bfab136	0.0076505197
151	0xba1690c7	-0.00057436194
152	0xb9682026	-0.0002213722
153	0x3ba812e6	0.005129206
154	0x3bfc6d1c	0.0077034365
155	0x3b01a609	0.0019782803
156	0x3c1779ee	0.009245379
157	0xb91ecc62	-0.00015144193
158	0x3b447384	0.002997608
159	0x3c348d44	0.0110200085
160	0x3c861700	0.01636839
161	0xbb042b58	-0.0020167436
162	0x3c6e592b	0.0145476265
163	0x3b6d49e2	0.0036207368
164	0x3c1dee79	0.009639376
165	0x3c8213c0	0.015878558
166	0x3bb2cc22	0.0054564634
167	0x3b22f130	0.0024862997
168	0x3b5ba663	0.0033515922
169	0x3a95d4b6	0.0011431191
170	0x3a052928	0.000507968
171	0x3bbba279	0.0057261554
172	0x3a6dfd6e	0.00090785965
173	0x3cdf3220	0.027245581
174	0x3c69427a	0.014237041
175	0xb911526e	-0.00013858985
176	0x3c1275de	0.008939235
177	0x3b79ca39	0.003811492
178	0x3aa572e6	0.0012622743
179	0x3c500dd4	0.012698609
180	0x3b633479	0.0034668727
181	0x3c0def86	0.008663064
182	0x3a982ff3	0.001161097
183	0x3b842ae9	0.0040334356
184	0x3c916e7b	0.017752877
185	0x3b7f6eb9	0.0038975908
186	0x3c66cfbb	0.014087613
187	0xbaf3aba2	-0.0018590579
188	0xbaa03c17	-0.001222494
189	0x3bd1372c	0.006384751
190	0x3b91064a	0.0044257985
191	0x38d9b53e	0.00010381125
192	0xb9391bc0	-0.00017653313
193	0xbabc7b2c	-0.001437997
194	0xb861ccd9	-5.383496e-05
195	0x3bd8fe38	0.006622102
196	0xbb2ad7c6	-0.0026068552
197	0x3a19631f	0.0005851257
198	0xbb056626	-0.0020355075
199	0x39c50e54	0.00037585443
200	0xba261a2e	-0.00063362985
201	0xba77db63	-0.00094549934
202	0xbbb57688	-0.0055378117
203	0xba012e84	-0.0004927891
204	0xbb14460f	-0.0022624766
205	0xbb28257b	-0.0025657106
206	0x3a3f4125	0.0007295779
207	0x3b46b0c7	0.003031777
208	0x3ba7908b	0.0051136664
209	0x39461802	0.00018891695
210	0xbafa6ff0	-0.0019106846
211	0x3b048978	0.002022354
212	0xba6dca2c	-0.00090709585
213	0x39bae164	0.00035644614
214	0xba31be92	-0.00067804113
215	0x3b27140c	0.0025494127
216	0xbbfd4711	-0.007729419
217	0xb9a91ae0	-0.00032254215
218	0xbb583c4a	-0.003299492
219	0x3aa47e3f	0.0012549831
220	0x39c302cc	0.00037195382
221	0x394a6bd7	0.00019304395
222	0x3a9802d1	0.0011597519
223	0x3989e3a2	0.00026300276
224	0xbb50619f	-0.0031796468
225	0x39095730	0.00013097818
226	0x3b347c7a	0.0027540014
227	0x39f568a8	0.00046808016
228	0x3b1e72d1	0.0024177323
229	0x39d1ee7c	0.0004004127
230	0x38745730	5.8255333e-05
231	0x3acdfa35	0.0015714826
232	0x3b5b1fd5	0.0033435721
233	0x3b279406	0.0025570407
234	0x3bf9b7f6	0.007620807
235	0xba67f9ea	-0.0008849191
236	0x39de2e26	0.00042377523
237	0x3a1208a4	0.00055707456
238	0xbad026f0	-0.0015880745
239	0xbb804c63	-0.003915356
240	0x00000004	6e-45
241	0x00000004	6e-45
242	0x00000000	0.0
243	0x00000004	6e-45
244	0x00000004	6e-45
245	0x00000004	6e-45
246	0x00000004	6e-45
247	0x00000004	6e-45
248	0x00000004	6e-45
249	0x00000004	6e-45
250	0x00000004	6e-45
251	0x00000004	6e-45
252	0x00000004	6e-45
253	0x00000004	6e-45
254	0x00000004	6e-45
255	0x00000004	6e-45
